…
    if not os.path.exists(model_dir):
      os.mkdir(model_dir)

    model_path = model_dir + '/multi_img_classfication.model'
    checkpoint = ModelCheckpoint(filepath=model_path, monitor='val_loss', verbose=1, save_best_only=True)
    early_stopping = EarlyStopping(monitor='val_loss', patience=6)

  model.summary()
#+end_src

#+RESULTS:
#+begin_example
Model: "sequential"
_________________________________________________________________
Layer (type)                 Output Shape              Param #   
=================================================================
conv2d (Conv2D)              (None, 64, 64, 32)        896       
_________________________________________________________________
max_pooling2d (MaxPooling2D) (None, 32, 32, 32)        0         
_________________________________________________________________
dropout (Dropout)            (None, 32, 32, 32)        0         
_________________________________________________________________
conv2d_1 (Conv2D)            (None, 32, 32, 64)        18496     
_________________________________________________________________
max_pooling2d_1 (MaxPooling2 (None, 16, 16, 64)        0         
_________________________________________________________________
dropout_1 (Dropout)          (None, 16, 16, 64)        0         
_________________________________________________________________
flatten (Flatten)            (None, 16384)             0         
_________________________________________________________________
dense (Dense)                (None, 256)               4194560   
_________________________________________________________________
dropout_2 (Dropout)          (None, 256)               0         
_________________________________________________________________
dense_1 (Dense)              (None, 6)                 1542      
=================================================================
Total params: 4,215,494
Trainable params: 4,215,494
Non-trainable params: 0
_________________________________________________________________
#+end_example

#+begin_src ipython :results output
  from tensorflow.keras.preprocessing.image import *
  datagen = ImageDataGenerator(featurewise_center=True,
  featurewise_std_normalization=True,
…
    if not os.path.exists(model_dir):
      os.mkdir(model_dir)

    model_path = model_dir + '/multi_img_classfication.model'
    checkpoint = ModelCheckpoint(filepath=model_path, monitor='val_loss', verbose=1, save_best_only=True)
    early_stopping = EarlyStopping(monitor='val_loss', patience=6)

  model.summary()
#+end_src

#+RESULTS:
#+begin_example
Model: "sequential_4"
_________________________________________________________________
Layer (type)                 Output Shape              Param #   
=================================================================
conv2d_8 (Conv2D)            (None, 64, 64, 128)       3584      
_________________________________________________________________
max_pooling2d_8 (MaxPooling2 (None, 32, 32, 128)       0         
_________________________________________________________________
dropout_12 (Dropout)         (None, 32, 32, 128)       0         
_________________________________________________________________
conv2d_9 (Conv2D)            (None, 32, 32, 64)        73792     
_________________________________________________________________
max_pooling2d_9 (MaxPooling2 (None, 16, 16, 64)        0         
_________________________________________________________________
dropout_13 (Dropout)         (None, 16, 16, 64)        0         
_________________________________________________________________
flatten_4 (Flatten)          (None, 16384)             0         
_________________________________________________________________
dense_8 (Dense)              (None, 256)               4194560   
_________________________________________________________________
dropout_14 (Dropout)         (None, 256)               0         
_________________________________________________________________
dense_9 (Dense)              (None, 6)                 1542      
=================================================================
Total params: 4,273,478
Trainable params: 4,273,478
Non-trainable params: 0
_________________________________________________________________
#+end_example

#+begin_src ipython :results output
  from tensorflow.keras.preprocessing.image import *
  datagen = ImageDataGenerator(featurewise_center=True,
  featurewise_std_normalization=True,
…
    early_stopping = EarlyStopping(monitor='val_loss', patience=6)

  model.summary()

  from tensorflow.keras.preprocessing.image import *
  datagen = ImageDataGenerator(featurewise_center=True,
  featurewise_std_normalization=True,
  rotation_range=20,
  width_shift_range=0.2,
  height_shift_range=0.2,
  horizontal_flip=True)

  datagen.fit(X_train)
  
#+end_src

#+RESULTS:
#+begin_example
Model: "sequential_6"
_________________________________________________________________
Layer (type)                 Output Shape              Param #   
=================================================================
conv2d_12 (Conv2D)           (None, 64, 64, 32)        896       
_________________________________________________________________
max_pooling2d_12 (MaxPooling (None, 32, 32, 32)        0         
_________________________________________________________________
dropout_18 (Dropout)         (None, 32, 32, 32)        0         
_________________________________________________________________
conv2d_13 (Conv2D)           (None, 32, 32, 16)        4624      
_________________________________________________________________
max_pooling2d_13 (MaxPooling (None, 16, 16, 16)        0         
_________________________________________________________________
dropout_19 (Dropout)         (None, 16, 16, 16)        0         
_________________________________________________________________
flatten_6 (Flatten)          (None, 4096)              0         
_________________________________________________________________
dense_12 (Dense)             (None, 256)               1048832   
_________________________________________________________________
dropout_20 (Dropout)         (None, 256)               0         
_________________________________________________________________
dense_13 (Dense)             (None, 6)                 1542      
=================================================================
Total params: 1,055,894
Trainable params: 1,055,894
Non-trainable params: 0
_________________________________________________________________
#+end_example

#+begin_src ipython :results value :async t
history = model.fit(X_train, y_train, batch_size=32, epochs=10, validation_data=(X_test, y_test), callbacks=[checkpoint, early_stopping])
…
